{"format": "torch", "nodes": [{"name": "model", "id": 12956499648, "class_name": "SimpleConvNet(\n  (conv1): Sequential(\n    (0): Conv2d(3, 16, kernel_size=(3, 3), stride=(1, 1), padding=(1, 1))\n    (1): BatchNorm2d(16, eps=1e-05, momentum=0.1, affine=True, track_running_stats=True)\n    (2): ReLU()\n    (3): MaxPool2d(kernel_size=2, stride=2, padding=0, dilation=1, ceil_mode=False)\n  )\n  (conv2): Sequential(\n    (0): Conv2d(16, 32, kernel_size=(3, 3), stride=(1, 1), padding=(1, 1))\n    (1): BatchNorm2d(32, eps=1e-05, momentum=0.1, affine=True, track_running_stats=True)\n    (2): ReLU()\n    (3): MaxPool2d(kernel_size=2, stride=2, padding=0, dilation=1, ceil_mode=False)\n  )\n  (conv3): Sequential(\n    (0): Conv2d(32, 64, kernel_size=(3, 3), stride=(1, 1), padding=(1, 1))\n    (1): BatchNorm2d(64, eps=1e-05, momentum=0.1, affine=True, track_running_stats=True)\n    (2): ReLU()\n    (3): MaxPool2d(kernel_size=2, stride=2, padding=0, dilation=1, ceil_mode=False)\n  )\n  (conv4): Sequential(\n    (0): Conv2d(64, 128, kernel_size=(3, 3), stride=(1, 1), padding=(1, 1))\n    (1): BatchNorm2d(128, eps=1e-05, momentum=0.1, affine=True, track_running_stats=True)\n    (2): ReLU()\n    (3): MaxPool2d(kernel_size=2, stride=2, padding=0, dilation=1, ceil_mode=False)\n  )\n  (skip1): Conv2d(3, 16, kernel_size=(1, 1), stride=(2, 2))\n  (skip2): Conv2d(16, 32, kernel_size=(1, 1), stride=(2, 2))\n  (skip3): Conv2d(32, 64, kernel_size=(1, 1), stride=(2, 2))\n  (classifier): Sequential(\n    (0): AdaptiveAvgPool2d(output_size=(2, 2))\n    (1): Flatten(start_dim=1, end_dim=-1)\n    (2): Linear(in_features=512, out_features=120, bias=True)\n    (3): ReLU()\n    (4): Linear(in_features=120, out_features=60, bias=True)\n    (5): ReLU()\n    (6): Linear(in_features=60, out_features=1, bias=True)\n  )\n)", "parameters": [["conv1.0.weight", [16, 3, 3, 3]], ["conv1.0.bias", [16]], ["conv1.1.weight", [16]], ["conv1.1.bias", [16]], ["conv2.0.weight", [32, 16, 3, 3]], ["conv2.0.bias", [32]], ["conv2.1.weight", [32]], ["conv2.1.bias", [32]], ["conv3.0.weight", [64, 32, 3, 3]], ["conv3.0.bias", [64]], ["conv3.1.weight", [64]], ["conv3.1.bias", [64]], ["c
…
