{"format": "torch", "nodes": [{"name": "model", "id": 12959085152, "class_name": "SimpleConvNet(\n  (conv1): Sequential(\n    (0): Conv2d(3, 32, kernel_size=(7, 7), stride=(1, 1), padding=(3, 3))\n    (1): BatchNorm2d(32, eps=1e-05, momentum=0.1, affine=True, track_running_stats=True)\n    (2): ReLU()\n  )\n  (conv2): Sequential(\n    (0): Conv2d(32, 64, kernel_size=(5, 5), stride=(1, 1), padding=(2, 2))\n    (1): BatchNorm2d(64, eps=1e-05, momentum=0.1, affine=True, track_running_stats=True)\n    (2): ReLU()\n  )\n  (skip): Conv2d(32, 64, kernel_size=(1, 1), stride=(1, 1))\n  (conv3): Sequential(\n    (0): Conv2d(64, 128, kernel_size=(3, 3), stride=(1, 1), padding=(1, 1))\n    (1): BatchNorm2d(128, eps=1e-05, momentum=0.1, affine=True, track_running_stats=True)\n    (2): ReLU()\n  )\n  (conv4): Sequential(\n    (0): Conv2d(128, 256, kernel_size=(3, 3), stride=(1, 1), padding=(1, 1))\n    (1): BatchNorm2d(256, eps=1e-05, momentum=0.1, affine=True, track_running_stats=True)\n    (2): ReLU()\n  )\n  (conv5): Sequential(\n    (0): Conv2d(256, 512, kernel_size=(3, 3), stride=(1, 1), padding=(1, 1))\n    (1): BatchNorm2d(512, eps=1e-05, momentum=0.1, affine=True, track_running_stats=True)\n    (2): ReLU()\n  )\n  (pool): MaxPool2d(kernel_size=2, stride=2, padding=0, dilation=1, ceil_mode=False)\n  (classifier): Sequential(\n    (0): AdaptiveAvgPool2d(output_size=(1, 1))\n    (1): Flatten(start_dim=1, end_dim=-1)\n    (2): Linear(in_features=512, out_features=128, bias=True)\n    (3): ReLU()\n    (4): Linear(in_features=128, out_features=1, bias=True)\n  )\n)", "parameters": [["conv1.0.weight", [32, 3, 7, 7]], ["conv1.0.bias", [32]], ["conv1.1.weight", [32]], ["conv1.1.bias", [32]], ["conv2.0.weight", [64, 32, 5, 5]], ["conv2.0.bias", [64]], ["conv2.1.weight", [64]], ["conv2.1.bias", [64]], ["skip.weight", [64, 32, 1, 1]], ["skip.bias", [64]], ["conv3.0.weight", [128, 64, 3, 3]], ["conv3.0.bias", [128
…
